M5-Deep Learning/4. MLP Regression/model.pth (torch, 2655 bytes, 3 tensors)

weight f4 [8, 16]
0	0x3e381ec1	0.17980482
1	0x3d54286d	0.051796366
2	0x3da5d2f4	0.08096877
3	0x3d46c845	0.048530836
4	0xbe66ce45	-0.22539623
5	0xbc2c40dd	-0.0105135115
6	0x3e4940ba	0.19653597
7	0x3e12661e	0.14296767
8	0xbd8d4b43	-0.06899121
9	0x3de7d085	0.11319069
10	0x3e667b47	0.22507964
11	0xbe221d71	-0.15831544
12	0x3c28bbe1	0.0102987
13	0xbe5f1b0b	-0.2178766
14	0x3da842fc	0.08215901
15	0x3e3d6a58	0.18497598
16	0xbd8fecf5	-0.07027618
17	0x3e45a46c	0.19301003
18	0x3e05da76	0.13071617
19	0x3b94a983	0.004536809
20	0x3d9830b3	0.07431164
21	0xbe2004ad	-0.15626784
22	0xbe19e675	-0.15029319
23	0xbde5eb64	-0.11226538
24	0xbcd167dd	-0.025562221
25	0xbe387d3f	-0.18016528
26	0x3ca4b95f	0.020107923
27	0x3e2dd025	0.16973932
28	0x3e3ea2e8	0.18616831
29	0xbe611d1d	-0.21983762
30	0x3e481aba	0.19541445
31	0x3dcb6294	0.09930912
32	0x3e33ce45	0.17559154
33	0x3e71f372	0.23628023
34	0xbe01e448	-0.12684739
35	0xbe57e05a	-0.21081677
36	0x3d8d6869	0.0690468
37	0x3e4b3a2b	0.19846408
38	0xbda1f3df	-0.07907843
39	0xbe0b0799	-0.13577117
40	0x3dd3f862	0.1035011
41	0xbe3dacda	-0.18522969
42	0xbe14b3c9	-0.14521708
43	0x3e185df5	0.14879592
44	0xbd25974e	-0.0404275
45	0xbc208793	-0.009797948
46	0xbdfac76b	-0.12245067
47	0xbe1a2db6	-0.150565
48	0x3ddd2327	0.107977204
49	0xbdbdf7fd	-0.09275816
50	0xbdbda571	-0.09260071
51	0xbd964fa8	-0.07339412
52	0x3e6c6af3	0.23087673
53	0xbe58e478	-0.21180904
54	0xbd16b441	-0.036792997
55	0x3e405a83	0.18784527
56	0xbd8f15e6	-0.06986599
57	0x3db10c8d	0.08644972
58	0x3e226b47	0.15861236
59	0x3dc53577	0.09629338
60	0x3d189eac	0.037260696
61	0x3e4485cb	0.19191663
62	0xbe45b73f	-0.19308184
63	0xbd98d2b1	-0.07462061
64	0xbe75406d	-0.23950358
65	0x3d700352	0.058596916
66	0x3bf645c5	0.0075156414
67	0x3e122f58	0.14275873
68	0x3e0010f3	0.12506466
69	0xbc527476	-0.012845149
70	0xbcd7f82e	-0.026363458
71	0xbde0638a	-0.109564856
72	0xbcbbfd62	-0.02294797
73	0xbd154600	-0.03644371
74	0x3e147ff2	0.14501932
75	0xbc9929d3	-0.018696701
76	0x3db1adf8	0.0867576
77	0xbe655663	-0.22396235
78	0x3e803161	0.25037673
79	0x3e55a42a	0.20863405
80	0x3dc17ddf	0.09447836
81	0xbe24ea4f	-0.16105007
82	0x3d7b047c	0.061283574
83	0x3d770a92	0.060312815
84	0x3dd2b8e7	0.102891736
85	0xbe04fa6d	-0.12986155
86	0x3d96fa2f	0.073719375
87	0x3e1e1e98	0.15441358
88	0xbe4b3462	-0.19844201
89	0x3d0836af	0.033255275
90	0x3e7b2ecd	0.24529572
91	0x3e59e44f	0.21278499
92	0x3e248f36	0.16070256
93	0x3e58179d	0.21102758
94	0x3e303da5	0.17211016
95	0x3e7de013	0.24792509
96	0xbda576fc	-0.08079335
97	0xbc7771be	-0.015102802
98	0xbe42d738	-0.19027412
99	0xbe74cc79	-0.23906125
100	0x3d898785	0.067153014
101	0x3e5b2985	0.21402557
102	0xbe562c7a	-0.20915404
103	0xbe3fce6a	-0.18731084
104	0x3d69394d	0.056939412
105	0xbe2cdbb2	-0.16880682
106	0xbc31be26	-0.010848558
107	0xbda8504a	-0.08218439
108	0xbd928fa3	-0.07156303
109	0x3df838e2	0.121202245
110	0xbe2e4949	-0.17020144
111	0x3e5c2d34	0.21501619
112	0xbd4a7d6f	-0.04943603
113	0x3d8b0f96	0.06790082
114	0xbdfd6263	-0.123722814
115	0xbc7f06e8	-0.015565611
116	0xbc3f59cc	-0.011679124
117	0x3e0122a1	0.12610866
118	0x3dee525d	0.11636803
119	0x3e3088df	0.17239712
120	0x3d651345	0.05592658
121	0xbe77c60b	-0.24196641
122	0x3e61d951	0.22055556
123	0xbde159bf	-0.11003446
124	0xbe421ddb	-0.18956701
125	0xbdb3f24a	-0.08786447
126	0x3d629741	0.05532003
127	0x3cdde3de	0.027086195

bias f4 [8]
0	0x3e724faa	0.23663202
1	0x3e4479fb	0.19187157
2	0x3d0262d9	0.03183255
3	0xbe800b32	-0.2500854
4	0xbe126909	-0.1429788
5	0x3d78e32e	0.06076353
6	0x3e6416a2	0.22274259
7	0xbe6989bd	-0.22806449

weight f4 [1, 8]
0	0xbbeeb42e	-0.0072846627
1	0xbd842234	-0.06451836
2	0x3ea82460	0.32840252
3	0xbe57a3d5	-0.2105859
4	0x3e976c72	0.29574925
5	0x3d3b22ff	0.04568767
6	0x3ea6e79e	0.32598585
7	0xbe7c58c0	-0.2464323
